…
C:\Users\trush\AppData\Local\Programs\Python\Python39\lib\site-packages\keras\src\layers\convolutional\base_conv.py:107: UserWarning: Do not pass an `input_shape`/`input_dim` argument to a layer. When using Sequential models, prefer using an `Input(shape)` object as the first layer in the model instead.
  super().__init__(activity_regularizer=activity_regularizer, **kwargs)
Model: "sequential_2"
┌─────────────────────────────────┬────────────────────────┬───────────────┐
│ Layer (type)                    │ Output Shape           │       Param # │
├─────────────────────────────────┼────────────────────────┼───────────────┤
│ sequential (Sequential)         │ (32, 256, 256, 3)      │             0 │
├─────────────────────────────────┼────────────────────────┼───────────────┤
│ sequential_1 (Sequential)       │ (32, 256, 256, 3)      │             0 │
├─────────────────────────────────┼────────────────────────┼───────────────┤
│ conv2d (Conv2D)                 │ (32, 254, 254, 32)     │           896 │
├─────────────────────────────────┼────────────────────────┼───────────────┤
│ max_pooling2d (MaxPooling2D)    │ (32, 127, 127, 32)     │             0 │
├─────────────────────────────────┼────────────────────────┼───────────────┤
│ conv2d_1 (Conv2D)               │ (32, 125, 125, 64)     │        18,496 │
├─────────────────────────────────┼────────────────────────┼───────────────┤
│ max_pooling2d_1 (MaxPooling2D)  │ (32, 62, 62, 64)       │             0 │
├─────────────────────────────────┼────────────────────────┼───────────────┤
│ conv2d_2 (Conv2D)               │ (32, 60, 60, 64)       │        36,928 │
├─────────────────────────────────┼────────────────────────┼───────────────┤
│ max_pooling2d_2 (MaxPooling2D)  │ (32, 30, 30, 64)       │             0 │
├─────────────────────────────────┼────────────────────────┼───────────────┤
│ conv2d_3 (Conv2D)               │ (32, 28, 28, 64)       │        36,928 │
├─────────────────────────────────┼────────────────────────┼───────────────┤
│ max_pooling2d_3 (MaxPooling2D)  │ (32, 14, 14, 64)       │             0 │
├─────────────────────────────────┼────────────────────────┼───────────────┤
│ conv2d_4 (Conv2D)               │ (32, 12, 12, 64)       │        36,928 │
├─────────────────────────────────┼────────────────────────┼───────────────┤
│ max_pooling2d_4 (MaxPooling2D)  │ (32, 6, 6, 64)         │             0 │
├─────────────────────────────────┼────────────────────────┼───────────────┤
│ conv2d_5 (Conv2D)               │ (32, 4, 4, 64)         │        36,928 │
├─────────────────────────────────┼────────────────────────┼───────────────┤
│ max_pooling2d_5 (MaxPooling2D)  │ (32, 2, 2, 64)         │             0 │
├─────────────────────────────────┼────────────────────────┼───────────────┤
│ flatten (Flatten)               │ (32, 256)              │             0 │
├─────────────────────────────────┼────────────────────────┼───────────────┤
│ dense (Dense)                   │ (32, 64)               │        16,448 │
├─────────────────────────────────┼────────────────────────┼───────────────┤
│ dense_1 (Dense)                 │ (32, 3)                │           195 │
└─────────────────────────────────┴────────────────────────┴───────────────┘
 Total params: 183,747 (717.76 KB)
 Trainable params: 183,747 (717.76 KB)
 Non-trainable params: 0 (0.00 B)
None
Epoch 1/50
54/54 ━━━━━━━━━━━━━━━━━━━━ 57s 806ms/step - accuracy: 0.4891 - loss: 0.9451 - val_accuracy: 0.4323 - val_loss: 0.8712
Epoch 2/50
54/54 ━━━━━━━━━━━━━━━━━━━━ 71s 1s/step - accuracy: 0.5689 - loss: 0.8033 - val_accuracy: 0.8229 - val_loss: 0.4808
…
